model/lstm_model.pth (torch, 130658 bytes, 10 tensors)

lstm.weight_ih_l0 f4 [200, 3]
0	0x3d773f80	0.060363293
1	0x3daa1430	0.08304632
2	0x3e20aa9a	0.1569008
3	0x3ee85e02	0.45384222
4	0x3d591154	0.05299504
5	0xbe036b7e	-0.12833974
6	0xbe003598	-0.12520444
7	0x3e7940a5	0.24341066
8	0xbe85b510	-0.26114702
9	0x3e189191	0.14899279
10	0x3db9bd39	0.090692945
11	0x3e7920ed	0.24328966
12	0xbe95545c	-0.29165924
13	0xbd4d5ca5	-0.05013718
14	0x3dc63f88	0.096800864
15	0x3e143780	0.14474297
16	0x3dc2ce43	0.095119976
17	0x3e91f8fb	0.2851027
18	0x3eb7228a	0.3576854
19	0x3e6f3d1b	0.23363154
20	0x3dc8a461	0.09796978
21	0x3cf86994	0.030323781
22	0x3eb3b4f8	0.35099006
23	0x3e80b868	0.2514069
24	0x3e3b428c	0.18287104
25	0x3dccd128	0.10000831
26	0x3ede1645	0.43376365
27	0xbe75ae2e	-0.23992226
28	0xbeaae871	-0.33380464
29	0xbefe0776	-0.49615067
30	0x3f190358	0.5977073
31	0x3e15a01a	0.14611855
32	0x3edfced4	0.43712485
33	0xbe8a36a2	-0.26994807
34	0xbf59d3ee	-0.85089004
35	0xbf2317d9	-0.63708264
36	0x3dbf0b4f	0.09328329
37	0xbe6f3ee5	-0.23363836
38	0xbeb1bc03	-0.34713754
39	0xbded519a	-0.1158783
40	0xbee3251a	-0.44364244
41	0xbe466d5c	-0.19377655
42	0x3e21f48a	0.1581594
43	0xbe0d8477	-0.13820063
44	0x3e1b7427	0.15181027
45	0x3ee78f48	0.45226502
46	0x3e3f3b5f	0.18674992
47	0x3e7de20d	0.24793263
48	0xbe4bfc30	-0.1992042
49	0xbec81d46	-0.39084834
50	0xbf0abcb8	-0.5419421
51	0x3e875b34	0.2643677
52	0xbd635c5f	-0.055508014
53	0x3e8c2dba	0.27378637
54	0xbe3aa253	-0.18225984
55	0xbe5c4ca1	-0.21513607
56	0xbe761171	-0.24030091
57	0x3f0ccec7	0.5500302
58	0x3e9a5262	0.30140978
59	0x3e9e406d	0.30908528
60	0xbca419b2	-0.020031784
61	0xbf3c28a8	-0.73499537
62	0xbed92e9a	-0.42418367
63	0x3e3e2f3e	0.18572709
64	0xbedf40c9	-0.43604115
65	0xbec7b2ff	-0.3900375
66	0xbf0b1e96	-0.54343545
67	0xbf20a1f4	-0.6274712
68	0xbe518374	-0.20460302
69	0x3e728fd2	0.23687676
70	0x3db92fb2	0.090423
71	0x3e821ebf	0.25414082
72	0xbee4f965	-0.44721523
73	0xbe3f3d3c	-0.18675703
74	0x3e92ecf9	0.2869642
75	0x3e371b5e	0.17881534
76	0x3d481795	0.048850615
77	0xbed7628b	-0.4206737
78	0xbdbf7781	-0.093489654
79	0xbe332f51	-0.17498519
80	0xbe5e6c3d	-0.21720977
81	0xbebf4858	-0.3735988
82	0xbde949ed	-0.11391053
83	0x3c464fc0	0.012103975
84	0x3a0325e2	0.00050028984
85	0xbeaae53c	-0.33378017
86	0xbe493804	-0.19650275
87	0xbdccdb04	-0.100027114
88	0x3e360bbb	0.17777912
89	0xbebf54ec	-0.37369478
90	0xbd42c318	-0.047549337
91	0x3e2b6899	0.1673912
92	0x3e5d1198	0.21588743
93	0x3bfc4dee	0.0076997196
94	0xbbc4d0e4	-0.006006347
95	0xbd40a41e	-0.047031514
96	0x3eb09256	0.34486645
97	0x3e9e0dbc	0.30869853
98	0x3e0be959	0.13663234
99	0x3d974afa	0.073873475
100	0x3e051366	0.12995681
101	0x3ec209ee	0.378982
102	0x3ddbb108	0.107271254
103	0xbf17bc0b	-0.59271306
104	0xbec05e23	-0.3757182
105	0x3e4758f5	0.19467528
106	0xbebd3d41	-0.36960796
107	0xbf150b13	-0.5822002
108	0x3f134d10	0.57539463
109	0x3e873b1e	0.2641229
110	0x3ec8db23	0.39229688
111	0xbe435a15	-0.19077332
112	0xbe8229ba	-0.2542246
113	0xbe759707	-0.23983394
114	0xbe8c81c3	-0.2744275
115	0x3e03283a	0.12808314
116	0x3cd41280	0.025887728
117	0xbd212980	-0.039346218
118	0x3e9670ad	0.2938284
119	0x3e970f2f	0.29503772
120	0x3e49dc2e	0.19712898
121	0x3d9c0c41	0.07619525
122	0x3e886d47	0.26645872
123	0x3e3eb1e8	0.18622553
124	0x3e034e77	0.128229
125	0x3e7239ef	0.23654912
126	0x3d910575	0.07081119
127	0xbd6962c9	-0.056978974
128	0xbdf19a4c	-0.11797008
129	0xbd50c2d7	-0.050967064
130	0xbe016d09	-0.1263925
131	0x3eb11f23	0.34594068
132	0xbdb4c530	-0.08826673
133	0x3da8fa50	0.08250868
134	0x3d985095	0.07437245
135	0xbe4659fe	-0.19370267
136	0xbebb80e2	-0.36621767
137	0xbf177060	-0.59155846
138	0x3e517be2	0.20457414
139	0x3f1bfe0b	0.60934514
140	0x3f1351ce	0.575467
141	0x3f296372	0.66167367
142	0x3dd0b319	0.1019041
143	0xbdd34bab	-0.10317167
144	0xbe2dcb43	-0.1697207
145	0xbeef5f4b	-0.4675239
146	0xbf1bff63	-0.60936564
147	0x3c9d716b	0.019219121
148	0xbe8f9688	-0.28044534
149	0xbec8bc02	-0.3920594
150	0x3e17ef92	0.14837483
151	0x3e1c3093	0.15252905
152	0xbe64eb71	-0.22355439
153	0x3ee523f8	0.44754004
154	0x3e0ad0f5	0.13556273
155	0xbd8effda	-0.069823936
156	0xbd65838b	-0.056033652
157	0x3d0cf233	0.034410667
158	0xbe867bb4	-0.26266253
159	0x3dab0194	0.083499104
160	0xbeaff1bc	-0.34364116
161	0xbf11acc8	-0.5690427
162	0xbec50faf	-0.38488528
163	0xbb4ec833	-0.0031552434
164	0x3e27e771	0.16396882
165	0x3d5892c0	0.052874327
166	0xbe9120b0	-0.2834525
167	0x3e11b54d	0.14229317
168	0xbe118322	-0.1421018
169	0xbd750482	-0.059818752
170	0xbe2708e3	-0.16311984
171	0xbe864bec	-0.262298
172	0xbcfdc5c0	-0.030978084
173	0x3e6b3fb7	0.22973524
174	0xbd5a324d	-0.053270627
175	0xbec06edd	-0.37584582
176	0xbecb9a3a	-0.39766103
177	0xbd9bda7e	-0.076100335
178	0xbee26637	-0.4421861
179	0xbea0fca3	-0.31442747
180	0x3f03b345	0.5144542
181	0x3d21f999	0.039544675
182	0xbd9f92b0	-0.0779165
183	0x3da06049	0.07830865
184	0xbecf4d85	-0.4048883
185	0xbe787670	-0.2426393
186	0xbecc03e0	-0.39846706
187	0xbed38273	-0.41310462
188	0xbf079cf3	-0.5297386
189	0xbc0f99a2	-0.008764656
190	0xbea1c801	-0.31597903
191	0xbdf758b3	-0.12077465
192	0xbd0db07b	-0.034592133
193	0xbef221c0	-0.47291374
194	0xbd9a6b0d	-0.075399496
195	0x3dd812ce	0.10550462
196	0xbd3821bd	-0.04495405
197	0xbd32558f	-0.043538626
198	0xbd179835	-0.03701039
199	0xbc9d106f	-0.019172875
200	0xbe39dfcb	-0.18151776
201	0xbefccec0	-0.49376488
202	0xbe50d38a	-0.20393196
203	0xbe45d45e	-0.19319293
204	0xbe07a0b5	-0.13244899
205	0xbe3a1f27	-0.18175946
206	0xbd6b51a7	-0.057450917
207	0x3e49ebb2	0.19718817
208	0x3e137cb3	0.14403038
209	0x3d13dc67	0.036098864
210	0xbe0a149e	-0.13484427
211	0xbe9a7074	-0.3016392
212	0xbe6cf42d	-0.2314002
213	0x3d3703d5	0.04468139
214	0xbe4b515c	-0.19855255
215	0xbed3451f	-0.41263673
216	0xbea684ba	-0.32523137
217	0xbeba3ee0	-0.36376095
218	0xbef48edb	-0.4776524
219	0xbf54794f	-0.829976
220	0x3e3c42f2	0.18384913
221	0xbeb55828	-0.3541882
222	0xbe1a1793	-0.15048055
223	0xbf064c6c	-0.5246036
224	0xbf48632e	-0.78276336
225	0x3e9db6ee	0.30803627
226	0xbdb7a37c	-0.08966729
227	0xbe4f648d	-0.20253201
228	0x3dd49fd8	0.1038205
229	0xbde6968d	-0.11259184
230	0xbea02fd2	-0.31286484
231	0xbe1b3180	-0.15155602
232	0xbdfeae1d	-0.12435553
233	0xbe52e392	-0.20594624
234	0xbeb47c9b	-0.35251316
235	0xbe0585a8	-0.13039267
236	0xbf1cb7b9	-0.6121784
237	0xbec3f1c8	-0.38270402
238	0xbdd2e42c	-0.102974266
239	0xbf4a368e	-0.78989494
240	0xbe164fd1	-0.14678885
241	0xbe59cfbf	-0.21270655
242	0xbcb8e88c	-0.022571824
243	0xbe4dffde	-0.20117137
244	0xbec1fc75	-0.37887922
245	0xbddc4523	-0.10755374
246	0x3e681615	0.22664674
247	0x3ddd8050	0.10815489
248	0xbc86999d	-0.01643067
249	0x3de33512	0.11094107
250	0x3e3099b8	0.17246139
251	0x3e2faa59	0.17154826
252	0xbd152db0	-0.036420524
253	0xbebb6095	-0.36597124
254	0x3b11fe1a	0.00222767
255	0x3e817aef	0.25289103

lstm.weight_hh_l0 f4 [200, 50]
0	0x3e0060ba	0.12536898
1	0xbc8f75e7	-0.017512275
2	0x3e29812e	0.16553184
3	0xbc9d9469	-0.019235807
4	0xbe5827e4	-0.21108967
5	0xbc9e51c3	-0.019326096
6	0xbeb5c0e4	-0.35498726
7	0x3d15c0b9	0.036560748
8	0x3d89f4d2	0.06736149
9	0xbe12c7f7	-0.14334093
10	0x3db6dfa5	0.089293756
11	0x3c0d03a5	0.008606826
12	0xbdd67c65	-0.10472945
13	0xbe254b8c	-0.161421
14	0xbe189151	-0.14899184
15	0x3e40ccf5	0.18828185
16	0x3e3976ff	0.181118
17	0xbb3f0058	-0.0029144492
18	0x3e4fe6a3	0.20302825
19	0xbe812705	-0.25225082
20	0xbc8bcc3f	-0.017065166
21	0xbdd1d682	-0.10245992
22	0x3d667aee	0.05626958
23	0xbc0f3259	-0.008740031
24	0x3e556c83	0.20842175
25	0xbcaec392	-0.02133349
26	0xbd508729	-0.05091015
27	0x3dc430b3	0.09579601
28	0xbe120184	-0.1425839
29	0x3e34c192	0.17651966
30	0xbe265c37	-0.16246115
31	0xbdb7fb2d	-0.08983455
32	0xbc5019db	-0.012701477
33	0x3e09831c	0.1342892
34	0xbdbe604a	-0.092957094
35	0xbea5bfd9	-0.3237293
36	0xbdd2e932	-0.10298385
37	0x3d893c98	0.067010105
38	0x3d02c00b	0.031921428
39	0x3d137e2b	0.036008995
40	0x3d810092	0.06298937
41	0xbd6930f8	-0.056931466
42	0x3dcfb189	0.10141284
43	0xbb8556ef	-0.004069201
44	0x3d895dc4	0.067073375
45	0xbda3f368	-0.080054104
46	0x3d90073e	0.07032631
47	0x3c619fc6	0.013771003
48	0x3c8502b4	0.01623664
49	0xbd0b2e15	-0.033979494
50	0x3e0f9359	0.14021052
51	0xbd8a9fad	-0.06768737
52	0xbdabe055	-0.08392397
53	0xbe91ded8	-0.2849033
54	0x3e1472b1	0.14496876
55	0x3e73e805	0.23818977
56	0x3def85b3	0.11695423
57	0xbe9870b3	-0.29773483
58	0xbe91462b	-0.28373846
59	0xbe814a35	-0.25251928
60	0xbe134d9f	-0.14385079
61	0xbcee0cc8	-0.029058829
62	0x3d147f81	0.03625441
63	0x3c0fdc6e	0.008780582
64	0xbca4b72f	-0.02010688
65	0x3e477826	0.19479427
66	0xbd1cf407	-0.03831866
67	0xbd4c7bfe	-0.049922936
68	0xbd171d68	-0.03689328
69	0x3e646977	0.22305857
70	0xbea55bb0	-0.32296515
71	0x3e53a486	0.2066823
72	0xbd769050	-0.06019622
73	0xbd6dd607	-0.05806544
74	0xbbd306e0	-0.0064400285
75	0x3c904cb2	0.017614696
76	0xbe2d399e	-0.1691651
77	0x3dc9f4b0	0.098611236
78	0xbe0c1ec6	-0.13683614
79	0x3d4a0437	0.049320426
80	0x3e3f23d7	0.18666016
81	0x3e255a2c	0.16147679
82	0x3e28458b	0.16432779
83	0xbc97b6b5	-0.018519739
84	0xbe19d829	-0.15023865
85	0xbf0236a6	-0.50864637
86	0xbebfcb16	-0.3745963
87	0x3d5519fb	0.05202673
88	0x3d0a9a62	0.033838637
89	0x3db9fe91	0.09081758
90	0xbe4c2c61	-0.19938804
91	0x3e81f69b	0.25383458
92	0xbe17db84	-0.14829832
93	0xbe477744	-0.1947909
94	0x3e8148cc	0.25250852
95	0xbdef1baf	-0.11675202
96	0xbe1505d5	-0.14553006
97	0xbeda76fc	-0.42668903
98	0x3e331c1d	0.17491193
99	0x3e081b24	0.13291603
100	0x3ea47152	0.32117707
101	0xbb34840d	-0.0027544529
102	0x3c851904	0.01624728
103	0xbd7e3105	-0.062058467
104	0xbdcd2e0d	-0.10018549
105	0xbdc0def0	-0.09417522
106	0x3d5a1a3d	0.05324768
107	0xbe818d21	-0.25302985
108	0x3d899599	0.067179866
109	0xbe168001	-0.14697267
110	0xbe319d70	-0.17345214
111	0x3df73889	0.1207133
112	0xbd17c7dc	-0.037055835
113	0xbe06459b	-0.1311249
114	0xbddea553	-0.10871377
115	0x3dc27871	0.094956286
116	0x3cd89061	0.026436033
117	0xbd4bb347	-0.04973152
118	0x3c80c5d0	0.015719324
119	0x3cd11557	0.025522871
120	0xbe0a51eb	-0.13507812
121	0xbc8d2bd9	-0.017232822
122	0x3de102e5	0.1098688
123	0x3e251ed7	0.16125046
124	0xbda8f6d4	-0.08250204
125	0x3de7437a	0.11292167
126	0xbd817855	-0.0632178
127	0x3e29dcab	0.16588084
128	0xbe9e6559	-0.30936697
129	0x3ccf54c4	0.025308974
130	0xbb9aa9b3	-0.0047199368
131	0xbddb375a	-0.10703917
132	0x3e70110f	0.23444007
133	0xbc8f3004	-0.01747895
134	0xbd6d18ea	-0.057885088
135	0x3e52b105	0.2057534
136	0x3e9c981f	0.3058481
137	0x3ddf56d7	0.10905235
138	0xbad7bd05	-0.001645953
139	0x3a1dde68	0.0006022216
140	0x3e841147	0.25794432
141	0x3cb28e5d	0.0217964
142	0xbe39ea5f	-0.18155812
143	0x3da5b03d	0.080902554
144	0xbdc05978	-0.09392065
145	0x3d66e781	0.056373123
146	0xbe0f67d1	-0.14004447
147	0x3e3d20a2	0.1846948
148	0x3e2e3a3b	0.170144
149	0x3ce5c96b	0.028050145
150	0xbdcf358c	-0.10117635
151	0x3e2143ef	0.15748571
152	0xbdbd66b8	-0.09248108
153	0x3d2b667f	0.041845795
154	0x3dd9f72f	0.1064285
155	0xbc309eb4	-0.010780025
156	0xbe0fd1da	-0.14044896
157	0x3cfaf4c2	0.030634288
158	0x3ddf25fa	0.10895915
159	0xbcb94499	-0.022615718
160	0x3e949f1b	0.29027638
161	0x3df6deb8	0.12054199
162	0x3c8ea2ce	0.017411616
163	0xbd8886e9	-0.06666357
164	0xbe4d7a33	-0.20066147
165	0x3d4e1278	0.050310582
166	0xbd5304a3	-0.051518094
167	0xbe82ff3a	-0.25585347
168	0x3dd501c1	0.10400725
169	0xbe71a2b0	-0.23597217
170	0x3c26e06b	0.010185341
171	0xbd949d1b	-0.07256528
172	0xbe09272d	-0.1339385
173	0x3e150c98	0.14555585
174	0x3d1be93a	0.03806422
175	0xbd956a24	-0.07295635
176	0x3aad3fd2	0.0013217872
177	0xbe11757a	-0.1420497
178	0xbe111755	-0.14169057
179	0x3b6a4589	0.0035747013
180	0xbd22c9ed	-0.039743353
181	0xbd000b91	-0.03126103
182	0xbdd9c7d3	-0.106338166
183	0x3d4d6a9e	0.050150506
184	0xbce63c08	-0.028104797
185	0x3d3f5e04	0.04672052
186	0x3c1f1428	0.0097093955
187	0xbd49c7e9	-0.049262915
188	0xbdaacfb9	-0.08340401
189	0x3dc828dd	0.09773419
190	0x3da33f01	0.079710014
191	0x3d81883d	0.063248135
192	0x3d69e308	0.05710128
193	0x3d84499a	0.06459351
194	0x3d9e2813	0.07722487
195	0xbdc157b0	-0.09440553
196	0xbd23f010	-0.040023863
197	0x3d8cba45	0.068714656
198	0xbd8ba165	-0.06817893
199	0xbc1e9e5d	-0.009681311
200	0x3d48cd53	0.049023937
201	0x3c3c5653	0.011495191
202	0x3cbc5f9b	0.022994807
203	0x3b8c6806	0.0042848615
204	0xbd664ea2	-0.056227334
205	0x3d3cd849	0.046104703
206	0xbe2cdbd9	-0.1688074
207	0xbe9c95fe	-0.30583185
208	0xbd98baf7	-0.07457536
209	0xbe1e8997	-0.15482174
210	0x3e4d763f	0.20064639
211	0xbd72d9db	-0.059289794
212	0xbba676d4	-0.0050800834
213	0x3d06a3d5	0.032871086
214	0xbdf0a5b1	-0.11750353
215	0xbdf8e9c3	-0.121539615
216	0x3ca34708	0.019931331
217	0x3dc4d5b9	0.09611077
218	0x3a1fdeca	0.0006098567
219	0x3d39767d	0.045279015
220	0x3deb699c	0.11494753
221	0xbca0bead	-0.019622171
222	0xbd07e8da	-0.03318105
223	0x3c6485d2	0.013947921
224	0xbd0ae5de	-0.033910625
225	0x3d654e64	0.055982962
226	0xbdc95d46	-0.098322436
227	0x3d9bc5c8	0.07606083
228	0x3d8d3458	0.068947494
229	0xbe4535af	-0.1925876
230	0xbe94a670	-0.29033232
231	0x3c344962	0.011003824
232	0xbc151f46	-0.009101694
233	0x3de48ab1	0.11159266
234	0x3d3fa661	0.04678953
235	0xbeca64ba	-0.39529973
236	0x3db289b8	0.08717674
237	0xbd1a2587	-0.037633445
238	0x3ea2cabe	0.31795305
239	0x3d2d8d9e	0.042371385
240	0x3e2580ae	0.16162369
241	0xbe0e0be7	-0.13871728
242	0xbe3d6f9c	-0.18499607
243	0x3d92c91f	0.07167267
244	0x3d2e8d55	0.042615253
245	0x3ca2ca98	0.019871995
246	0xbd3eaa5c	-0.046549186
247	0x3e4a6592	0.19765308
248	0x3c918407	0.01776315
249	0xbb07caab	-0.0020720165
250	0xbc6327bf	-0.013864457
251	0xbdd43203	-0.103611015
252	0xbd005a0b	-0.03133587
253	0x3d6366e3	0.055518042
254	0xbd8114bb	-0.06302782
255	0x3db1ab0d	0.086752035

lstm.bias_ih_l0 f4 [200]
0	0xbc4424b6	-0.011971643
1	0xbccdbc24	-0.025114127
2	0xbcf08444	-0.029359944
3	0x3d7da2f3	0.06192298
4	0xbcfad41b	-0.030618718
5	0x3e13cfb2	0.14434698
6	0x3e9f8903	0.3115922
7	0x3e8b2933	0.2717987
8	0x3eec6b44	0.46175587
9	0xbf1e9105	-0.6194003
10	0x3f15a85a	0.5846001
11	0xbf2a7263	-0.6658079
12	0xbd58282e	-0.052772693
13	0xbe5b24c2	-0.2140074
14	0x3d21da9f	0.039515134
15	0x3ec81b09	0.39083126
16	0xbf4e4e08	-0.80587816
17	0x3e0093c6	0.12556371
18	0xbeac8346	-0.33693904
19	0x3efbeae9	0.4920266
20	0xbf0af147	-0.5427441
21	0xbf228887	-0.63489574
22	0xbef1544e	-0.47134632
23	0x3de26e8f	0.11056244
24	0xbe3d4d80	-0.18486595
25	0xbeb74e74	-0.35802042
26	0xbec1f108	-0.37879205
27	0xbe294bf2	-0.16532877
28	0xbe13cffd	-0.1443481
29	0x3e1058f5	0.14096434
30	0x3d8bfb98	0.06835097
31	0xbd665d35	-0.056241233
32	0x3ccef6d8	0.025264189
33	0x3e40f815	0.18844636
34	0xbf4df818	-0.80456686
35	0x3ce97a47	0.02850069
36	0x3ef0358b	0.4691585
37	0xbed388a6	-0.41315192
38	0xbd4057a6	-0.046958588
39	0x3e48b8c8	0.19601738
40	0x3ed1d779	0.40984705
41	0x3e627ade	0.22117183
42	0xbe8acc0f	-0.2710881
43	0x3eb482d8	0.35256076
44	0x3e010af8	0.1260184
45	0xbe9b9c25	-0.30392566
46	0x3f154a6e	0.58316696
47	0xbe5595b1	-0.20857884
48	0xbf1c13b0	-0.6096754
49	0xbefc8fe6	-0.49328536
50	0xbe7f3491	-0.24922396
51	0x3d1f480d	0.038887072
52	0x3d83293b	0.064043485
53	0xbf32b4e6	-0.6980728
54	0xbde44a5a	-0.11146994
55	0xbd6bba0b	-0.05755047
56	0x3b882687	0.0041549834
57	0x3de4611f	0.11151337
58	0xbebfed31	-0.3748565
59	0xbe98b5fc	-0.29826343
60	0xbd15ceb2	-0.036574073
61	0xbf0a6d9c	-0.540735
62	0xbf39aa87	-0.7252583
63	0xbdee1d3d	-0.116266705
64	0xbdd0bba0	-0.10192037
65	0x3d3b75c2	0.0457666
66	0xbeab4946	-0.3345434
67	0xbcb913c0	-0.022592425
68	0xbe61e5fb	-0.22060387
69	0x3e2bf8b9	0.16794099
70	0xbf0429a2	-0.51626027
71	0xbe9ba09a	-0.30395967
72	0xbf32e3e9	-0.69879013
73	0xbecc66ea	-0.39922267
74	0xbf90400d	-1.1269547
75	0xbe727817	-0.23678623
76	0xbeaee0a5	-0.34155765
77	0xbe5c8c86	-0.2153798
78	0xbf132f84	-0.5749438
79	0xbf19c82b	-0.6007106
80	0xbe1c54b3	-0.15266685
81	0xbde68413	-0.1125566
82	0xbdfa51e6	-0.12222652
83	0x3d5a9f27	0.053374436
84	0xbeb354ee	-0.35025734
85	0x3dac6cb5	0.08419172
86	0xbe1a7f81	-0.15087701
87	0xbe9a4bef	-0.30136058
88	0xbe8b5dde	-0.27220052
89	0x3dad8a96	0.08473699
90	0xbd9083bc	-0.07056376
91	0xbe1c9ad0	-0.15293431
92	0xbc32d1de	-0.010914294
93	0xbfb33afa	-1.4002373
94	0xbf6aa9c0	-0.9166527
95	0xbec3a184	-0.38209164
96	0xbe9b1984	-0.30292904
97	0xbdc3e674	-0.0956544
98	0xbea9c16a	-0.33155376
99	0xbebea41c	-0.3723458
100	0xbda3fe2d	-0.080074646
101	0xbc48d880	-0.012258649
102	0xbd68abf4	-0.056804612
103	0xbc545674	-0.012960065
104	0x3c408cde	0.011752335
105	0xbe0bd3ad	-0.13654967
106	0xbdb3bb54	-0.087759644
107	0xbc4f457e	-0.012650846
108	0x3d203fc7	0.039123323
109	0xbdb4b710	-0.08823979
110	0x3d3b4ede	0.04572951
111	0xbdbd5fca	-0.09246786
112	0xbd3c28d5	-0.045937378
113	0x3d0d62c9	0.034518037
114	0xbc99727a	-0.018731344
115	0xbdbd9060	-0.09256053
116	0xbc99aac6	-0.018758189
117	0xbdcc1d08	-0.09966475
118	0xbda458b1	-0.08024729
119	0xbd6966fa	-0.05698297
120	0xbcb6b26b	-0.022301873
121	0x3d573e27	0.052549507
122	0x3da237e7	0.07920819
123	0x3d8f4022	0.06994654
124	0x3c44a685	0.012002592
125	0x3ca80b06	0.020513069
126	0x3ce81840	0.028331876
127	0xbc4027af	-0.011728211
128	0x3d4da189	0.05020288
129	0x3d9d46b1	0.07679499
130	0xbd82aaaa	-0.06380208
131	0x3d6433ed	0.055713583
132	0x3d128812	0.035774298
133	0xbd47b2ca	-0.04875449
134	0xbd9b3496	-0.07578389
135	0xbcbbcb64	-0.022924133
136	0xbe0cd098	-0.13751447
137	0xbdf16630	-0.11787069
138	0x3bfd347c	0.007727204
139	0x3d9b89ca	0.075946406
140	0xbc9012f7	-0.017587168
141	0xbb6bad53	-0.0035961464
142	0x3c240f72	0.010013448
143	0xbd8c5ce5	-0.06853656
144	0xbcbb74aa	-0.022882778
145	0x3e0d61f2	0.13806894
146	0xbe0ae27f	-0.13562964
147	0x3d7307de	0.059333675
148	0xbcf4f674	-0.029902674
149	0xbd1e5cef	-0.038662847
150	0x3db4462d	0.088024475
151	0x3db28b15	0.08717934
152	0xbddd5003	-0.10806277
153	0x3e0a5bf0	0.13511634
154	0x3d40f8ea	0.047112383
155	0xbcbafed6	-0.022826593
156	0x3ebb7a7b	0.36616883
157	0x3e801965	0.25019374
158	0x3f142058	0.5786185
159	0xbecc7e8a	-0.39940292
160	0x3f220e45	0.63303024
161	0xbf29eb9e	-0.6637515
162	0xbe2b8a12	-0.16751888
163	0xbe374127	-0.17895947
164	0xbd05196e	-0.032494955
165	0x3ebeb960	0.37250805
166	0xbf196ca6	-0.5993141
167	0x3e267682	0.16256145
168	0xbf1b6ffe	-0.6071776
169	0x3e9f8370	0.31154966
170	0xbf40d6c1	-0.7532769
171	0xbf03d299	-0.5149322
172	0xbedd6a3a	-0.43245107
173	0x3e7a444c	0.24440116
174	0xbe219366	-0.15778884
175	0xbeabb5ff	-0.3353729
176	0xbee5af85	-0.44860473
177	0xbe80b69d	-0.25139323
178	0xbd011203	-0.031511318
179	0x3cb35925	0.021893093
180	0x3d15d48b	0.03657965
181	0x3dda52b8	0.106603086
182	0x3d574c4d	0.052563
183	0x3e3d9569	0.18514027
184	0xbf2216dd	-0.63316137
185	0xbe393a70	-0.18088698
186	0x3e348e68	0.17632449
187	0xbe410218	-0.18848455
188	0xbe3188fe	-0.17337415
189	0x3cc1cf10	0.023658305
190	0x3eaa879e	0.33306593
191	0x3e59c964	0.2126823
192	0xbe23f01a	-0.1600956
193	0x3eaf6ef9	0.34264353
194	0x3e586823	0.21133475
195	0xbecb7580	-0.39738083
196	0x3ebe28e8	0.37140584
197	0x3a5b95f6	0.0008376533
198	0xbf29c393	-0.6631405
199	0xbf0d2695	-0.55136997

lstm.bias_hh_l0 f4 [200]
0	0x3d2cd677	0.042196717
1	0xba7aaf0e	-0.00095628283
2	0xbe1eadd2	-0.15495995
3	0x3dc12d38	0.09432453
4	0xbd23c440	-0.03998208
5	0x3d586ab3	0.05283613
6	0x3ebf2a35	0.3733689
7	0x3e64d023	0.22345023
8	0x3ed6a5ce	0.41923374
9	0xbec27d68	-0.37986302
10	0x3f25dbd0	0.6478853
11	0xbf30d1af	-0.6906995
12	0x3c089431	0.008336113
13	0xbe49363c	-0.19649595
14	0xbe173d44	-0.14769465
15	0x3e965543	0.29361925
16	0xbf1b8c97	-0.607614
17	0x3e9e5164	0.3092147
18	0xbeed6066	-0.4636261
19	0x3edbad81	0.4290581
20	0xbf1beebf	-0.6091117
21	0xbeeedc03	-0.4665223
22	0xbf0fcff6	-0.561767
23	0x3d8b6c75	0.06807796
24	0xbe75f0f0	-0.24017692
25	0xbea63fd6	-0.32470578
26	0xbf186dbd	-0.5954245
27	0xbebb31b7	-0.36561367
28	0x3c086715	0.008325358
29	0x3e2ea2d9	0.17054309
30	0xbda1a71c	-0.07893202
31	0x3d99506b	0.07486042
32	0x3ded6ff1	0.11593617
33	0x3e2bf01f	0.16790818
34	0xbf39162a	-0.72299445
35	0xbde5c9da	-0.11220141
36	0x3e8b4337	0.27199718
37	0xbe73f5a9	-0.2382418
38	0xbe25f1d7	-0.16205536
39	0x3e57777e	0.21041676
40	0x3e96b281	0.29433063
41	0x3db42e63	0.0879791
42	0xbea12d63	-0.3147994
43	0x3e61fc19	0.22068824
44	0x3dca8cf4	0.09890166
45	0xbedcdec9	-0.43138722
46	0x3f0ddb94	0.55413175
47	0xbe844c2b	-0.25839362
48	0xbf230022	-0.6367208
49	0xbf12059e	-0.5703982
50	0xbe4249fd	-0.18973537
51	0xbdb2abe3	-0.08724191
52	0x3d0a609f	0.03378355
53	0xbf37f2de	-0.7185496
54	0x3c692471	0.01422988
55	0xbe275c41	-0.16343786
56	0x3dcce3bc	0.100043744
57	0x3e80a1ec	0.25123537
58	0xbe83ace3	-0.2571784
59	0xbf0acf70	-0.54222775
60	0x3de90bcd	0.11379204
61	0xbf0bd178	-0.546165
62	0xbf3957e1	-0.7239972
63	0xbe8d6020	-0.276124
64	0xbea33b17	-0.3188102
65	0x3e1e75bd	0.15474601
66	0xbee05d56	-0.4382121
67	0xbe0b82e5	-0.13624151
68	0xbe87b20e	-0.26503032
69	0x3d5e9fbc	0.054351553
70	0xbed874ed	-0.42276707
71	0xbed8fab4	-0.4237877
72	0xbf375e31	-0.716281
73	0xbee96e34	-0.4559189
74	0xbf971c64	-1.1805539
75	0xbeb15357	-0.34633896
76	0xbe930917	-0.28717873
77	0xbe819dfc	-0.25315845
78	0xbefbd191	-0.49183324
79	0xbf19d2d1	-0.60087305
80	0xbcccf6cd	-0.025020028
81	0x3c55a512	0.013039844
82	0x3d9c2a28	0.07625228
83	0x3dc2f7e9	0.09519941
84	0xbe42f93d	-0.1904039
85	0xbe0c578e	-0.13705274
86	0x3cfac760	0.030612648
87	0xbed6fda1	-0.41990378
88	0xbead0fc7	-0.338011
89	0xbded14c4	-0.11576226
90	0xbd46ad8b	-0.048505347
91	0x3d623a95	0.05523165
92	0xbd279484	-0.04091312
93	0xbf982b4e	-1.1888216
94	0xbf71d8d4	-0.9447148
95	0xbf0b9ae6	-0.5453323
96	0xbd570723	-0.05249704
97	0x3c9883bc	0.018617503
98	0xbea8e6ce	-0.3298859
99	0xbed629ee	-0.41828865
100	0xbce3ee53	-0.027823603
101	0x3ddd222f	0.10797536
102	0x3dbc3864	0.09190443
103	0x3e2da487	0.16957293
104	0x3e06698b	0.13126199
105	0x3c642392	0.013924496
106	0xbdfb007a	-0.1225595
107	0xbcd4c23c	-0.025971524
108	0xbccdde03	-0.025130277
109	0x3c14333c	0.009045418
110	0x3e2ed3c6	0.17072973
111	0x3da1b4be	0.07895802
112	0x3ce23191	0.027611526
113	0xbd9b552b	-0.07584604
114	0xbde8ca13	-0.113666676
115	0x3e126296	0.1429542
116	0x3c8f2e2d	0.017478073
117	0xbde2cabe	-0.11073826
118	0x3cd8f88a	0.0264857
119	0xbdb4e377	-0.08832448
120	0x3c0410ae	0.008060617
121	0x3cf2a2f3	0.029618716
122	0xbde91ba1	-0.11382223
123	0x3da42f2a	0.08016808
124	0x3bc15c6e	0.005900911
125	0x3c845025	0.016151497
126	0x3d4912cf	0.049090203
127	0xbd2c9fcf	-0.042144593
128	0xbe1ab872	-0.15109423
129	0xbc3644a5	-0.011124765
130	0x3e468d55	0.19389851
131	0xbe4b17ba	-0.1983327
132	0xbe33cb2b	-0.17557971
133	0xbe00e63d	-0.12587829
134	0x3db0358e	0.08603965
135	0xbe221a87	-0.15830432
136	0x3d445206	0.047929786
137	0xbd71ec6a	-0.059063353
138	0x3ddbb977	0.10728734
139	0x3e05e5b2	0.13075903
140	0x3d12a283	0.035799515
141	0x3de2442c	0.11048159
142	0x3dd48700	0.10377312
143	0x3d4d39f8	0.05010411
144	0xbc114a27	-0.008867777
145	0xbdf97514	-0.12180534
146	0xbd370308	-0.044680625
147	0x3dcd1bbe	0.10015057
148	0x3c2a51ba	0.010395462
149	0xbd459ff9	-0.048248265
150	0x3dd55acf	0.10417711
151	0xbda3b7b3	-0.07994022
152	0xbd6b8448	-0.0574992
153	0xbd2a1371	-0.041522447
154	0x3d892fe9	0.06698591
155	0xbca1f14e	-0.019768383
156	0x3e788708	0.2427026
157	0x3e0efb9b	0.13963167
158	0x3ee4d1b9	0.44691256
159	0xbf066fad	-0.52514154
160	0x3f12b187	0.57302135
161	0xbefde5df	-0.4958944
162	0xbe68eb40	-0.22745991
163	0xbee006d6	-0.43755215
164	0xbd489ed9	-0.048979614
165	0x3ed62eb6	0.41832513
166	0xbf4916b8	-0.7855029
167	0x3ea9a07c	0.33130252
168	0xbf19a864	-0.6002257
169	0x3f02854c	0.50984645
170	0xbf49aa1f	-0.7877521
171	0xbf15b3d2	-0.5847751
172	0xbeb8770e	-0.36028332
173	0x3e31fd5f	0.1738181
174	0x3d1f0801	0.038825992
175	0xbe81d436	-0.25357217
176	0xbf15e4db	-0.5855233
177	0xbeb2583a	-0.34832937
178	0xbdafdd5e	-0.08587144
179	0xbcfd27fd	-0.030902857
180	0x3e14c60e	0.14528677
181	0x3dc7fee4	0.097654134
182	0x3d608411	0.05481345
183	0x3e00ddcb	0.12584607
184	0xbf444673	-0.76669997
185	0xbb954986	-0.004555884
186	0x3e82fb7f	0.255825
187	0xbecab1e0	-0.39588833
188	0xbe34ad7a	-0.17644301
189	0x3d016ac7	0.03159597
190	0x3ed0e300	0.40798187
191	0x3e0432ae	0.12909958
192	0xbe0a9f66	-0.13537368
193	0x3e7231d8	0.23651826
194	0x3e2b30e7	0.16717874
195	0xbea99226	-0.33119315
196	0x3eb70fd6	0.3575427
197	0xbcd6367f	-0.026149033
198	0xbf0dba34	-0.5536225
199	0xbf0b4ce3	-0.54414195

lstm.weight_ih_l1 f4 [200, 50]
0	0xbeb674bb	-0.35635933
1	0x3e219f02	0.15783313
2	0xbe371385	-0.1787854
3	0x3e535f55	0.20641835
4	0x3e21c9d8	0.15799654
5	0x3c99024c	0.018677853
6	0xbe6d97a8	-0.23202384
7	0x3dd74850	0.105118394
8	0xbe999db8	-0.30003142
9	0x3e2de7eb	0.16983001
10	0x3e058873	0.13040332
11	0x3e456bbe	0.19279382
12	0xbe67503c	-0.225892
13	0x3c301900	0.010748148
14	0x3d008828	0.03137985
15	0xbe876b07	-0.26448843
16	0x3dac2001	0.08404542
17	0x3deeebcf	0.11666071
18	0xbe3b2040	-0.18274021
19	0x3d998e86	0.07497887
20	0x3da97490	0.08274186
21	0xbdb7a0fd	-0.08966253
22	0xbb070aa6	-0.0020605712
23	0xbe59c645	-0.2126704
24	0x3d63e3eb	0.05563728
25	0xbe654e79	-0.22393216
26	0xbb5d2a9e	-0.0033747326
27	0xba8a7fc2	-0.0010566639
28	0x3dc5c875	0.09657375
29	0x3dffde60	0.124935865
30	0xbe1bdec7	-0.15221702
31	0x3e15ede1	0.14641525
32	0xbeb53d02	-0.35398108
33	0xbf11f197	-0.5700926
34	0xbc4059a7	-0.011740125
35	0x3d45f7ce	0.048332028
36	0xbef8c271	-0.48585847
37	0xbdfacfe3	-0.122466825
38	0x3c4a784d	0.0123577835
39	0x3e81f736	0.2538392
40	0xbee1e1c3	-0.44117555
41	0x3e09170e	0.13387701
42	0xbe53428b	-0.20630853
43	0x3e69ed4d	0.2284443
44	0xbd847f8f	-0.06469642
45	0xbe79c80d	-0.2439272
46	0xbe24356b	-0.16036002
47	0x3e86722d	0.26258984
48	0x3d7ace4d	0.0612319
49	0x3d008e6b	0.03138582
50	0x3d96e80d	0.07368479
51	0xbc84ae95	-0.016196528
52	0x3e41828d	0.18897457
53	0xbd39acf9	-0.045330975
54	0xbe81aebf	-0.25328633
55	0x3daa3e80	0.08312702
56	0x3e55becd	0.20873566
57	0xbdaa3875	-0.083115496
58	0xbe176b17	-0.14786945
59	0x3dab7a74	0.083729655
60	0x3cdf13cd	0.027231121
61	0xbdf64735	-0.120253004
62	0xbd66762c	-0.05626504
63	0x3d9515c8	0.07279545
64	0x3daf6e3e	0.08565949
65	0xbe3d6b50	-0.18497968
66	0x3c1cd188	0.0095714405
67	0x3e9b5d82	0.30344778
68	0x3c093412	0.008374231
69	0x3e5a316c	0.21307915
70	0x3d88d5b3	0.06681385
71	0xbc23f121	-0.01000622
72	0x3d0d07d2	0.034431286
73	0xb813fc9a	-3.5282785e-05
74	0xbd915060	-0.070954084
75	0x3e0ebe9f	0.13939904
76	0x3de3add4	0.111171395
77	0x3e04053d	0.12892623
78	0xbc034581	-0.0080121765
79	0xbe01aa4b	-0.12662618
80	0xbe8b370d	-0.27190438
81	0x3e42184f	0.18954585
82	0x3de074b1	0.10959757
83	0x3e051c60	0.12999105
84	0x3d2142bc	0.039370283
85	0x3ed68d24	0.41904557
86	0x3e830d9b	0.25596318
87	0x3c15b28d	0.009136808
88	0xbd7e8d1d	-0.062146295
89	0xbe1a1423	-0.15046744
90	0xbdacb8ce	-0.08433686
91	0xbdbb394a	-0.091417864
92	0xbe62db7d	-0.2215404
93	0xbc03266c	-0.008004766
94	0x3c1cade3	0.009562942
95	0x3e41e0c1	0.18933393
96	0x3de3d751	0.11125053
97	0x3cc08ece	0.023505595
98	0x3de71fa0	0.11285329
99	0xbbe957d5	-0.007121066
100	0xbe421c7c	-0.18956178
101	0x3da987dc	0.08277866
102	0x3e12b764	0.1432777
103	0xbed906a6	-0.42387885
104	0xbf0e9868	-0.55701303
105	0x3ead6df1	0.3387294
106	0xbda9632b	-0.08270868
107	0xbe4842d7	-0.19556747
108	0xbe2d9979	-0.16953076
109	0xbe8ee9eb	-0.2791284
110	0x3dcab8ee	0.09898554
111	0x3e3f79ac	0.18698758
112	0xbe347f72	-0.17626742
113	0x3ed312c9	0.4122527
114	0x3e3c486c	0.18387002
115	0xbea30ff5	-0.31848112
116	0x3db8ff0f	0.090330236
117	0x3e967547	0.2938635
118	0x3e123310	0.14277291
119	0x3d99e893	0.07515063
120	0xbe7516c4	-0.23934466
121	0x3e116903	0.14200215
122	0x3ea63075	0.32458845
123	0xbdacf423	-0.08445003
124	0x3dd596ab	0.10429128
125	0x3e41f3ad	0.18940611
126	0xbed68b69	-0.41903237
127	0x3ebb3528	0.36563993
128	0x3e896244	0.26832783
129	0x3dec617f	0.115420334
130	0xbe7b79e6	-0.2455822
131	0x3e12fee6	0.14355049
132	0x3e57f9f8	0.2109145
133	0x3f458110	0.7715006
134	0xbec68032	-0.3876968
135	0x3e0c00f6	0.13672242
136	0x3f3839ca	0.7196318
137	0x3e85ad6a	0.26108867
138	0x3e5e6d0a	0.21721283
139	0xbe9a92de	-0.30190176
140	0xbe0d4830	-0.13797069
141	0xbf32b31c	-0.6980455
142	0xbeae9ba6	-0.34103125
143	0x3e0fbdbc	0.14037222
144	0x3e91fdb8	0.28513885
145	0x3f147c6a	0.5800234
146	0x3e79b6ca	0.24386135
147	0xbef0245d	-0.46902743
148	0xbaf8d921	-0.0018985608
149	0x3f1d2049	0.6137739
150	0x3dbf9852	0.09355225
151	0xbe6b7827	-0.22995053
152	0x3e514f84	0.20440489
153	0x3c0a54d5	0.008443077
154	0xbdef6774	-0.11689654
155	0xbb32dfed	-0.0027294115
156	0x3e7126f6	0.23550019
157	0xbcc8239c	-0.024431042
158	0xbdd1eae7	-0.10249882
159	0x3ddbae8b	0.10726651
160	0xbed9152c	-0.42398965
161	0x3d04abba	0.032390334
162	0x3ebf213b	0.3733004
163	0xbe8e0530	-0.27738333
164	0x3e84a78c	0.25909078
165	0x3ed4d2f4	0.41567194
166	0xbb36b621	-0.0027879553
167	0x3ea3e2dd	0.3200902
168	0xbdf3e2b5	-0.11908475
169	0x3e0fbf3d	0.14037795
170	0x3d8b6060	0.068054914
171	0x3dc2027f	0.09473132
172	0x3d0bf0ad	0.034165073
173	0xbd145dd5	-0.036222298
174	0xbe196dd4	-0.14983302
175	0x3d8c8a0b	0.06862267
176	0xbd94ed99	-0.07271881
177	0xbe5b590f	-0.21420692
178	0x3e0704ca	0.1318542
179	0xbe7118e4	-0.23544651
180	0x3e1b7d36	0.15184483
181	0x3c1eaa3f	0.0096841445
182	0x3df50988	0.119647086
183	0x3caeb5ba	0.021326888
184	0xbd7f0d71	-0.062268678
185	0xbe79aa90	-0.2438147
186	0xbe39a56b	-0.18129508
187	0x3dfdbce5	0.123895444
188	0x3d63c98b	0.05561213
189	0xbe7a1dd1	-0.24425437
190	0xbdcbfe33	-0.09960594
191	0x3ccdfc57	0.02514474
192	0xbd8deb5c	-0.06929657
193	0xbd80e1ca	-0.06293066
194	0xbd966acd	-0.073445894
195	0x3ccc50eb	0.024940928
196	0x3c15660f	0.009118571
197	0x3d04f96e	0.032464437
198	0x3e010bf1	0.12602212
199	0xbdbbe328	-0.09174186
200	0xbe90412b	-0.2817472
201	0xbe70a3c1	-0.23499967
202	0x3dc13017	0.094330005
203	0xbdc59f80	-0.09649563
204	0xbc307580	-0.010770202
205	0x3de2f5cc	0.11082038
206	0xbdc5def6	-0.09661667
207	0xbed60066	-0.4179718
208	0x3d8fabfa	0.07015224
209	0xbe202c17	-0.15641819
210	0x3d070a4f	0.032968815
211	0x3e824026	0.25439566
212	0x3c33b439	0.010968261
213	0x3e16c49b	0.14723437
214	0x3d3a49fe	0.04548072
215	0xbe28607c	-0.16443056
216	0x3da11b3d	0.078665234
217	0xbd9c5834	-0.07634011
218	0x3b3c7208	0.0028754491
219	0x3e29ecff	0.16594313
220	0xbd1af72d	-0.03783338
221	0x3db16311	0.086614735
222	0x3d5f2dab	0.05448691
223	0x3d91b390	0.07114327
224	0xbe5efc0c	-0.21775836
225	0x3e0ac1ef	0.13550542
226	0xbe9ef69f	-0.31047532
227	0x3d8fe345	0.0702577
228	0x3de5ab21	0.11214281
229	0xbdd10233	-0.102054976
230	0xbe00a35c	-0.12562317
231	0x3e589e92	0.2115424
232	0xbcf51dd4	-0.02992145
233	0x3de7289f	0.11287045
234	0xbd67833e	-0.056521647
235	0xbe29f26b	-0.16596381
236	0xbe058ed1	-0.13042761
237	0x3d2fda67	0.042932894
238	0x3e48f1a2	0.19623426
239	0xbe31d2b6	-0.17365536
240	0xbe53598b	-0.20639627
241	0xbce2db2d	-0.027692402
242	0xbe3771ef	-0.17914556
243	0xbda877d0	-0.082259774
244	0x3db659e2	0.089038625
245	0xbe118668	-0.14211428
246	0x3de2f69d	0.11082194
247	0x3e1ba4e5	0.15199621
248	0x3b1d106a	0.0023966082
249	0x3c3fb1b0	0.011700079
250	0xbe98a255	-0.2981135
251	0x3b14b681	0.0022691789
252	0xbe45068a	-0.19240776
253	0xbda16b29	-0.07881767
254	0x3daefa03	0.0854378
255	0x3e4db27f	0.20087622

lstm.weight_hh_l1 f4 [200, 50]
0	0x3e57a6c0	0.21059704
1	0xbe4ccfd5	-0.20001157
2	0xbd5ee0c2	-0.054413565
3	0xbe96c7bb	-0.29449257
4	0xbda10e24	-0.07864025
5	0xbd97ace7	-0.074060254
6	0xbd953e09	-0.07287223
7	0x3e3be715	0.1834987
8	0x3c632c2a	0.01386551
9	0xbde16239	-0.110050626
10	0xbe0c3fc6	-0.13696203
11	0x3eb5a08a	0.35474044
12	0xbe3ebf35	-0.18627627
13	0xbd89febe	-0.06738041
14	0x3c7030e1	0.014660091
15	0xbe52b537	-0.2057694
16	0xbd9efca2	-0.0776303
17	0x3b8fb90f	0.0043860744
18	0x3dc77c14	0.09740463
19	0xbea933eb	-0.33047423
20	0x3d658c9c	0.0560423
21	0x3e8d0c8b	0.27548632
22	0xbe037357	-0.12836967
23	0x3eb5e4d8	0.35526156
24	0x3df8a87f	0.12141513
25	0x3e2020c8	0.15637505
26	0xbe634bce	-0.22196886
27	0x3db0676a	0.08613475
28	0x3e16299b	0.14664309
29	0x3eb41612	0.35173088
30	0x3e1ad4af	0.15120195
31	0x3e9dc287	0.30812475
32	0xbe7acf3f	-0.2449312
33	0xbe7186c2	-0.23586562
34	0x3da7d5ce	0.08195077
35	0x3c18d600	0.009328365
36	0xbe2953f9	-0.1653594
37	0xbce20f99	-0.027595328
38	0x3d243d4f	0.04009753
39	0xbebd2d66	-0.369487
40	0x3dca1a93	0.0986835
41	0xbdbecdfd	-0.09316633
42	0xbce639b4	-0.028103687
43	0x3e2642c9	0.16236414
44	0x3e1bb4d5	0.152057
45	0x3ecfaf92	0.40563637
46	0x3efd5225	0.49476734
47	0x3e50a368	0.20374835
48	0x3e7eb4fc	0.24873728
49	0x3da716db	0.08158656
50	0x3e1bc775	0.15212806
51	0xbe2b0b81	-0.16703607
52	0xbe580be7	-0.2109829
53	0xbd1623de	-0.0366553
54	0xbc45caec	-0.012072306
55	0xbe1d86fd	-0.15383525
56	0xbe35d584	-0.17757231
57	0x3df2fd40	0.1186471
58	0x3e076cf0	0.1322515
59	0xbd5cfc47	-0.053951528
60	0xbd13791c	-0.03600417
61	0x3e5f7568	0.2182213
62	0xbd832303	-0.06403162
63	0x3de18fcb	0.110137545
64	0xbd94ce53	-0.07265916
65	0xbdd200f5	-0.10254089
66	0xbdd12f80	-0.10214138
67	0xbd8dfd17	-0.06933039
68	0x3dbebfad	0.09313903
69	0xbd7b21a4	-0.06131138
70	0x3e6ea2f0	0.23304343
71	0x3df7eb1b	0.1210539
72	0xbca4a737	-0.020099266
73	0x3e1aa5bc	0.15102285
74	0x3ddb3c27	0.107048325
75	0xbc9da903	-0.01924563
76	0xbda6173b	-0.081098996
77	0xbdbc336c	-0.091894954
78	0xbe5b443d	-0.2141275
79	0x3dc529ff	0.09627151
80	0x3bc187ef	0.005906097
81	0x3cf8a708	0.030353084
82	0xbd9c4170	-0.07629669
83	0x3d8bb935	0.06822435
84	0xbc3da8b5	-0.011575867
85	0x3d0f9ff8	0.035064667
86	0x3d477872	0.04869885
87	0x3c21c32d	0.009873194
88	0x3bd8cc75	0.00661617
89	0xbe51737f	-0.20454215
90	0x3a62ab0d	0.00086467044
91	0xbd908083	-0.07055762
92	0x3cebcf83	0.028785473
93	0x3d6c92a7	0.057757046
94	0x3e60fab6	0.21970639
95	0xbd04be91	-0.0324083
96	0x3aac43b4	0.0013142736
97	0x3e4b644a	0.19862476
98	0xbd2c5768	-0.042075545
99	0x3da164a5	0.078805245
100	0xbf03e9a5	-0.5152839
101	0x3f181bfd	0.59417707
102	0x3d76fdec	0.060300753
103	0x3ea920eb	0.33032927
104	0x3f21edcc	0.63253474
105	0x3f643905	0.89149505
106	0x3df7fde2	0.12108971
107	0xbeb49bb5	-0.35275045
108	0xbef2adbd	-0.47398177
109	0x3f2b08c0	0.66810226
110	0x3de5aa68	0.11214143
111	0xbf1111ef	-0.5666799
112	0x3f2d15f2	0.6761161
113	0x3e750afb	0.2392997
114	0xbea62ff3	-0.32458457
115	0x3d32c8ad	0.04364841
116	0x3de5afa6	0.11215143
117	0xbe2b2441	-0.16713049
118	0xbdf6fce6	-0.12059955
119	0x3f2c461f	0.67294496
120	0xbf064873	-0.524543
121	0xbea1b435	-0.315828
122	0xbea7c5d1	-0.3276811
123	0xbeef78f4	-0.46771967
124	0xbe9a9c77	-0.30197498
125	0xbe62218a	-0.22083107
126	0x3f0f120f	0.5588693
127	0x3ec25217	0.37953255
128	0x3d9820d1	0.07428134
129	0xbf369f7c	-0.71337104
130	0xbefca06b	-0.4934114
131	0xbf89b7c4	-1.0759206
132	0x3f0d3511	0.551591
133	0x3f2324bc	0.6372793
134	0x3ed272d2	0.41103226
135	0xbec154bc	-0.3775996
136	0x3f5cd38c	0.86260295
137	0xbeaf2f54	-0.34215796
138	0xbe9a711c	-0.3016442
139	0x3ed30b6d	0.41219655
140	0xbe1d0347	-0.15333281
141	0x3f0ca0e1	0.5493298
142	0xbe453da2	-0.19261792
143	0xbea74e95	-0.3267714
144	0xbeacd547	-0.33756468
145	0x3c40eba6	0.011774933
146	0xbf71dc86	-0.9447712
147	0xbf6d11b8	-0.9260516
148	0xbe9d1abb	-0.30684456
149	0xbf347c61	-0.7050229
150	0xbd0be1cb	-0.03415088
151	0xbe510acc	-0.20414275
152	0x3e69fe0f	0.22850822
153	0xbe2da663	-0.16958003
154	0xbdfb21bf	-0.12262296
155	0xbe5c7414	-0.21528655
156	0x3d048b67	0.032359507
157	0x3ea2b9c1	0.31782344
158	0x3ce2deed	0.02769419
159	0xbdb46daf	-0.08809983
160	0xbe34e2f4	-0.17664701
161	0x3d70461a	0.058660604
162	0xbe7349b7	-0.23758589
163	0x3dbf0117	0.0932638
164	0x3d7108df	0.05884635
165	0xbbe8040c	-0.0070805606
166	0xbd7d8a10	-0.061899245
167	0xbe68095f	-0.22659825
168	0x3ccd8830	0.025089353
169	0xbe3a7843	-0.18209939
170	0x3e5250b9	0.20538606
171	0x3dd9542b	0.10611757
172	0xbd131216	-0.03590592
173	0x3e160d08	0.14653409
174	0x3e16f8f1	0.14743401
175	0xbdc14a47	-0.094379954
176	0xbe8a0764	-0.26958764
177	0x3e3fcc9d	0.18730398
178	0xbd27fcc1	-0.04101253
179	0x3d29f8ce	0.041497044
180	0x3dd4ad42	0.10384609
181	0x3e705824	0.23471123
182	0xbe966513	-0.29373989
183	0xbe29e585	-0.16591461
184	0xbdd14777	-0.10218709
185	0x3e254548	0.1613971
186	0xbe32c93a	-0.17459574
187	0xbda0248d	-0.078194715
188	0x3cccfda4	0.025023289
189	0xbe9eec88	-0.31039834
190	0xbe7bfee7	-0.24608956
191	0xbe777209	-0.24164595
192	0xbc841434	-0.016122915
193	0xb9d6b69f	-0.00040953324
194	0x3d6f6b76	0.058452092
195	0x3e0bae89	0.13640799
196	0x3d8a4875	0.06752101
197	0x3e8c4d41	0.2740269
198	0x3e7a9a71	0.24472977
199	0x3e67b5e2	0.22627977
200	0xbcba3711	-0.022731336
201	0x3e13c282	0.14429668
202	0xbda8cf8a	-0.0824271
203	0x3e707b19	0.23484458
204	0x3d8aafdf	0.06771826
205	0x3e0c0f85	0.13677795
206	0x3e765e38	0.24059379
207	0xbe773376	-0.24140725
208	0xbd55a53f	-0.052159544
209	0x3b9b3a87	0.0047372016
210	0xbd5600b6	-0.05224677
211	0xbe1acded	-0.15117617
212	0xbd715aa3	-0.05892433
213	0x3daad548	0.083414614
214	0x3e4adf57	0.1981176
215	0x3c896814	0.016773261
216	0x3e374d86	0.17900667
217	0x3e1cb595	0.15303643
218	0x3e54f4df	0.20796536
219	0x3e42f8b8	0.19040191
220	0xbd640725	-0.055670876
221	0xbd831245	-0.06399969
222	0x3dba8744	0.09107831
223	0xbca07922	-0.01958901
224	0xbeb51315	-0.3536612
225	0xbccf1314	-0.025277652
226	0xbb0ec2ce	-0.0021783593
227	0xbddc760f	-0.107647054
228	0x3e1a159e	0.15047309
229	0xbdce306f	-0.10067832
230	0xbc072c77	-0.008250347
231	0xbd3797bd	-0.044822443
232	0x3e4ef583	0.20210843
233	0x3df54a53	0.11977067
234	0x3db9b4c4	0.090676814
235	0x3ce1034b	0.02746739
236	0x3de8b4f5	0.1136264
237	0xbc761533	-0.015019703
238	0xbe56ead9	-0.20988025
239	0x3df9c6b0	0.121961
240	0x3e1ec9db	0.15506689
241	0x3e8d1ed7	0.2756259
242	0xbec58449	-0.38577488
243	0x3b984e9a	0.004648042
244	0xbe39a398	-0.18128812
245	0xbd0eb6aa	-0.03484217
246	0xbd888d5a	-0.06667586
247	0xbdc280dd	-0.09497235
248	0xbe87860d	-0.2646946
249	0x3d915201	0.07095719
250	0x3ca32ec2	0.019919757
251	0xbe3924da	-0.18080464
252	0xbe969994	-0.29414046
253	0xbe7f424f	-0.24927638
254	0xbe7978ed	-0.24362536
255	0xbe888e1b	-0.26670918

lstm.bias_ih_l1 f4 [200]
0	0xbeeef2ce	-0.4666962
1	0xbdd9cd9a	-0.106349185
2	0x3ed122ed	0.4084696
3	0xbd9a9d5a	-0.07549544
4	0x3e310b48	0.1728946
5	0xbca5cbe1	-0.020238819
6	0xbe3540dc	-0.17700523
7	0xbbe7feaa	-0.007079919
8	0xbec1847b	-0.37796387
9	0x3d892f8c	0.06698522
10	0xbddae88a	-0.106888846
11	0xbd133052	-0.035934754
12	0x3c1a4b84	0.009417418
13	0xbf1a5dd0	-0.60299397
14	0x3e8c17d3	0.27361926
15	0x3f1bc776	0.6085123
16	0xbea09f8c	-0.31371725
17	0x3cf5f470	0.030023783
18	0x3e80d2d7	0.25160858
19	0x3e16acb7	0.14714323
20	0xbe62dd3c	-0.22154707
21	0x3ca641c8	0.020295039
22	0xbf2affbe	-0.6679648
23	0xbd153147	-0.036423948
24	0xbe808076	-0.25098008
25	0xbeae2e5c	-0.34019744
26	0xbc5d0a79	-0.013491266
27	0x3e9dde48	0.3083365
28	0x3bf5cc07	0.0075011286
29	0x3eb6345c	0.35586822
30	0xbe4d6968	-0.2005974
31	0x3da42b34	0.08016053
32	0xbd41984b	-0.04726438
33	0x3dfa8826	0.122329995
34	0xbf158d77	-0.58418983
35	0xbee26efa	-0.44225293
36	0x3e2500ad	0.16113539
37	0xbeaea0b7	-0.3410699
38	0xbe6da49f	-0.23207329
39	0xbe5380d6	-0.20654616
40	0xbe7ceb53	-0.24699144
41	0xbe6845e7	-0.22682916
42	0xbedf9775	-0.4367024
43	0xbef654e5	-0.48111644
44	0xbe030406	-0.12794504
45	0x3ee03db4	0.43797076
46	0x3d935116	0.071932
47	0xbc4a5abe	-0.012350736
48	0x3e01b242	0.12665656
49	0xbe445c7d	-0.19175906
50	0xbe617241	-0.2201624
51	0xbcef7229	-0.02922924
52	0xbe3e55fa	-0.18587485
53	0xbe2446a7	-0.16042577
54	0x3d8c0bd3	0.06838193
55	0xbe190671	-0.14943863
56	0xbf07a19e	-0.52980983
57	0xbe4e4097	-0.20141827
58	0xbe60b914	-0.21945602
59	0xbe928037	-0.28613445
60	0xbea5d959	-0.32392386
61	0xbc7a8377	-0.015290133
62	0xbdfb14d4	-0.12259832
63	0xbecf2532	-0.40458065
64	0xbe8339e0	-0.25630093
65	0xbe50242d	-0.203263
66	0xbe3e9fc5	-0.18615635
67	0xbee2bb1d	-0.4428338
68	0x3b156d10	0.0022800602
69	0xbd763788	-0.060111552
70	0xbe631c4b	-0.22178762
71	0xbe8c73a8	-0.2743199
72	0xbec82cfd	-0.39096823
73	0xbe29265f	-0.16518544
74	0xbca59f43	-0.020217543
75	0xbe870551	-0.26371244
76	0x3dae5652	0.08512558
77	0xbe7509d4	-0.2392953
78	0xbef18092	-0.47168404
79	0x3d6625a3	0.056188237
80	0xbe691665	-0.22762449
81	0xbc0d9e15	-0.008643647
82	0xbe69a2f3	-0.22816066
83	0xbe129174	-0.14313298
84	0xbe4cf56d	-0.20015498
85	0xbe6f1181	-0.23346521
86	0x3d9bc66e	0.07606207
87	0xbeed6463	-0.4636565
88	0xbdea61ff	-0.114444725
89	0xbed4433c	-0.41457546
90	0xbe842348	-0.25808167
91	0xbe73eecc	-0.23821563
92	0xbec9cfad	-0.39416257
93	0xbe0013c9	-0.12507547
94	0xbea8b8e2	-0.32953554
95	0xbdc8fea8	-0.09814197
96	0xbc8c9921	-0.017162861
97	0xbd14c02c	-0.036316082
98	0x3ce989be	0.028508063
99	0xbe7a41e5	-0.244392
100	0x3dfb1175	0.12259189
101	0x3e41474a	0.18874851
102	0xbda44b42	-0.08022167
103	0xbc733c0d	-0.01484586
104	0x3d5a15e2	0.053243525
105	0x3c2d4ec5	0.010577862
106	0xbd9b04ae	-0.07569252
107	0xbc86376a	-0.016383845
108	0xbd93857a	-0.07203193
109	0xbd85dd94	-0.06536403
110	0xbc28323b	-0.010265882
111	0xbe78e53f	-0.243062
112	0x3ded9851	0.11601318
113	0x3c66a6a3	0.014077815
114	0x3d742bc3	0.059612047
115	0xbd05d378	-0.032672375
116	0x3bcd4114	0.0062638614
117	0x3db2e154	0.08734384
118	0x3e12b080	0.14325142
119	0x3e870d4c	0.26377332
120	0x3d35b62d	0.04436319
121	0xbd8e415d	-0.06946061
122	0x3df689f4	0.12038031
123	0xbe4472e6	-0.19184455
124	0xbcd5684f	-0.026050715
125	0xbb8a4eb7	-0.0042208093
126	0x3e27b08c	0.16375941
127	0x3d053421	0.032520417
128	0xbc892b42	-0.01674426
129	0xbe077526	-0.13228282
130	0xbd86bdf1	-0.06579197
131	0x3ca119e5	0.019665668
132	0xbd5626a0	-0.05228293
133	0x3e5ab1bc	0.21356863
134	0x3e22814f	0.1586964
135	0x3c89a020	0.016799986
136	0x3e244705	0.16042717
137	0x3c7cf9ce	0.015440417
138	0xbe25b378	-0.16181743
139	0xbd64d143	-0.05586363
140	0xbde1f47d	-0.110329606
141	0x3c57cf2b	0.013171951
142	0xbce0563c	-0.02738487
143	0x3d092499	0.033482168
144	0xbda857d4	-0.08219877
145	0x3a897453	0.0010486938
146	0xbe0ebb46	-0.13938627
147	0x3cba5e91	0.02275017
148	0xbe0d7272	-0.13813189
149	0xbe244c06	-0.16044626
150	0xbe91cf76	-0.28478593
151	0xbce16cf4	-0.027517773
152	0x3edf01a8	0.4355595
153	0xbe20ec6e	-0.15715191
154	0x3e3dfe3b	0.18554012
155	0xbe13a296	-0.1441749
156	0xbe5a9755	-0.21346791
157	0x3de3b27a	0.11118026
158	0xbea8be5d	-0.32957736
159	0x3bcb7b23	0.0062097474
160	0xbe38cc38	-0.18046653
161	0xbde306de	-0.11085294
162	0xbcc418de	-0.023937639
163	0xbed4a07f	-0.415287
164	0x3e67d7d5	0.22640927
165	0x3f03d6b5	0.5149949
166	0xbed123bd	-0.4084758
167	0x3df60168	0.12011987
168	0x3eaa35e3	0.33244237
169	0x3dd691d4	0.10477033
170	0xbe9632fc	-0.29335773
171	0xbe1dca0d	-0.15409108
172	0xbf132376	-0.57475984
173	0x3dfc986c	0.1233376
174	0xbd991659	-0.074749656
175	0xbe98e44e	-0.29861683
176	0xbe0dec6c	-0.13859719
177	0x3e3f44cb	0.18678586
178	0x3db7a264	0.089665204
179	0x3e5304ed	0.20607348
180	0xbe1cf39f	-0.15327309
181	0x3d1a7d44	0.03771712
182	0xbb540571	-0.0032351876
183	0x3dd043f9	0.10169215
184	0xbf1c066d	-0.60947305
185	0xbeb6123d	-0.3556079
186	0xbddba787	-0.10725313
187	0xbf050a65	-0.51968986
188	0xbd9a7ef7	-0.07543748
189	0xbe59d756	-0.2127355
190	0xbead6ca2	-0.33871943
191	0xbee339dd	-0.44380084
192	0xbe959efd	-0.2922286
193	0xbeb7137a	-0.35757047
194	0xbe75a9ed	-0.23990603
195	0x3f180a89	0.59391075
196	0xbc9a43fa	-0.018831242
197	0xbde14042	-0.10998584
198	0x3dddb1cb	0.10824927
199	0xbc4ebcd8	-0.012618266

lstm.bias_hh_l1 f4 [200]
0	0xbec1ffe0	-0.3789053
1	0xbdb2646c	-0.0871056
2	0x3edb8dc3	0.42881593
3	0xbe73b740	-0.23800373
4	0x3e8b14db	0.2716435
5	0xbce5a801	-0.028034212
6	0x3c952f6e	0.018211093
7	0x3c0717ab	0.008245389
8	0xbe4bc70a	-0.19900146
9	0x3cedfd26	0.029051375
10	0xbe86de3d	-0.2634143
11	0x3d219e3e	0.039457552
12	0x3dbd8121	0.09253145
13	0xbf0ce4eb	-0.550368
14	0x3eb95461	0.36197188
15	0x3ec50505	0.38480392
16	0xbe2bd358	-0.1677984
17	0x3d3feb8c	0.046855494
18	0x3d8e7782	0.06956388
19	0x3d1cd3de	0.03828799
20	0xbeead5db	-0.45866284
21	0xbdc67d3f	-0.096918575
22	0xbf062017	-0.52392715
23	0x3d863a9f	0.0655415
24	0xbe9bc602	-0.30424505
25	0xbe9522ea	-0.291282
26	0xbd92fd79	-0.07177252
27	0x3e5430e7	0.2072178
28	0xbbc1f1e0	-0.0059187263
29	0x3e6987bd	0.22805686
30	0x3cf87774	0.030330397
31	0x3c36c29c	0.011154797
32	0x3ddcff08	0.10790831
33	0x3d42a918	0.04752454
34	0xbef8d326	-0.48598593
35	0xbef8942a	-0.4855054
36	0xbd0a9e26	-0.03384223
37	0xbeb6088b	-0.35553393
38	0xbd8bd2dd	-0.06827328
39	0xbea841d7	-0.32862732
40	0xbe7fc16b	-0.24976127
41	0xbe8f0d1b	-0.27939686
42	0xbeac9bd5	-0.3371264
43	0xbef76a50	-0.48323298
44	0xbe431810	-0.19052148
45	0x3ef233ca	0.47305137
46	0x3e839535	0.25699773
47	0x3ca3402b	0.019928059
48	0xbd81b4f3	-0.063333414
49	0x3c82c483	0.015962845
50	0xbebc65c5	-0.36796394
51	0x3d9124f4	0.070871264
52	0xbe4a2f5a	-0.19744626
53	0xbddd63a6	-0.10810022
54	0xbc2b66e4	-0.010461543
55	0xbdd3f94d	-0.10350285
56	0xbee0ab8e	-0.43880886
57	0xbe9484d2	-0.29007584
58	0xbeca00b3	-0.39453658
59	0xbee6ca7f	-0.45076367
60	0xbe9c34a7	-0.3050892
61	0xbd056fef	-0.03257745
62	0x3d932a6e	0.07185827
63	0xbef2a3f4	-0.4739071
64	0xbdb3dcfa	-0.08782382
65	0xbeb6a022	-0.35669047
66	0xbecf235c	-0.40456665
67	0xbf198900	-0.5997467
68	0xbddf00ed	-0.108888485
69	0xbd80f640	-0.062969685
70	0xbeb61a7f	-0.3556709
71	0xbe968c38	-0.29403853
72	0xbee76a27	-0.45198175
73	0xbcb7e087	-0.02244593
74	0xbb22ed06	-0.0024860515
75	0xbe894939	-0.26813677
76	0xbe26afe0	-0.16278028
77	0xbe9bbde0	-0.304183
78	0xbe7566f9	-0.23965062
79	0xbcd83113	-0.026390588
80	0xbdc8f6c3	-0.09812691
81	0xbe23476a	-0.15945211
82	0x3c8f6a51	0.01750675
83	0x3d088cc0	0.033337355
84	0xbed55d37	-0.4167268
85	0xbee9aad5	-0.45638147
86	0xbd052897	-0.032509413
87	0xbefe77df	-0.4970083
88	0xbdf44869	-0.11927874
89	0xbf13455d	-0.57527715
90	0xbebf2377	-0.37331745
91	0xbe9fe5f0	-0.31230116
92	0xbeceae05	-0.4036714
93	0xbe2257f9	-0.15853871
94	0xbe961e08	-0.29319787
95	0xbdd4b426	-0.10385923
96	0x3e06a037	0.13147055
97	0xbd1ee2e2	-0.03879059
98	0x3ce1044c	0.02746787
99	0xbe54b079	-0.20770444
100	0xbe16535c	-0.14680237
101	0x3e6dfc7a	0.23240843
102	0xbd9f61aa	-0.077823
103	0x3dee227f	0.11627673
104	0x3df2d804	0.11857608
105	0x3e1bc938	0.15213478
106	0xbd0dcf2a	-0.034621395
107	0xbe2b58fe	-0.16733167
108	0xbcdc3dc3	-0.026884919
109	0xbd22b9b7	-0.039727893
110	0x3d70af52	0.05876095
111	0xbc991ec0	-0.01869142
112	0x3e0b38f1	0.1359594
113	0x3dc5ec67	0.09664231
114	0x3ca31dab	0.019911608
115	0xbafa2fd4	-0.001908774
116	0x3dce906e	0.100861415
117	0x3d95be66	0.07311706
118	0xbd6fc468	-0.058536917
119	0x3e643bf2	0.22288492
120	0xbe2ee093	-0.17077856
121	0xbe0328d2	-0.1280854
122	0xbd5a4279	-0.05328605
123	0xbdf775fe	-0.12083052
124	0x3d6f401c	0.05841075
125	0xbd9158f4	-0.070970446
126	0x3dd09b49	0.10185868
127	0x3b9c4bc5	0.0047697746
128	0xbd329d64	-0.04360713
129	0xbd138b0c	-0.036021277
130	0x3d4c6681	0.049902443
131	0xbd1a5f27	-0.0376884
132	0x3de71ba7	0.11284571
133	0x3dd6775d	0.104719855
134	0xbda8b986	-0.08238511
135	0xbd84a022	-0.064758554
136	0x3e43bc9d	0.19114919
137	0x3dbc76b4	0.09202328
138	0xbd10a7b8	-0.0353162
139	0xbd783fff	-0.060607906
140	0xbc86ff56	-0.016479176
141	0x3d028d20	0.03187287
142	0xbe0702a6	-0.13184604
143	0xbdb6938a	-0.089148596
144	0x3c5da5be	0.013528286
145	0xbac4c8eb	-0.0015013492
146	0xbe6e1272	-0.23249224
147	0xbe5d1741	-0.21590902
148	0xbe3487ae	-0.17629883
149	0xbcd844d1	-0.026400002
150	0xbf0cba8e	-0.5497216
151	0x3e0586f9	0.13039769
152	0x3e912400	0.28347778
153	0xbe2442f4	-0.16041166
154	0x3e732c2f	0.23747323
155	0xbe4ca102	-0.19983295
156	0xbe67354a	-0.22578922
157	0xbd5b1f05	-0.05349638
158	0xbeb932c9	-0.36171558
159	0xbc08c638	-0.00834804
160	0xbe744f56	-0.2385839
161	0xbcb3e733	-0.02196083
162	0xbde55306	-0.11197476
163	0xbec7cd83	-0.3902398
164	0x3ea65fc5	0.3249494
165	0x3edd8794	0.432675
166	0xbe659223	-0.22419028
167	0xbd82712c	-0.06369242
168	0x3e44eb5f	0.19230412
169	0x3e2ab449	0.16670336
170	0xbe8456ec	-0.25847566
171	0xbe12cf39	-0.14336862
172	0xbf0baaf2	-0.54557717
173	0xbd6d25ca	-0.057897367
174	0xbe218725	-0.1577421
175	0xbea45f84	-0.32104123
176	0x3dfb97b7	0.12284797
177	0x3eb0245f	0.3440275
178	0x3d71ce8e	0.059034877
179	0x3e529673	0.20565204
180	0x3d188a99	0.037241552
181	0xbe0ecaad	-0.13944502
182	0xbcf5c05f	-0.029998956
183	0x3de45295	0.11148564
184	0xbf22def2	-0.6362144
185	0xbf1b44ec	-0.6065204
186	0x3d99bbfd	0.07506559
187	0xbef379aa	-0.4755376
188	0xbd5b9d6c	-0.053616926
189	0xbeb804f1	-0.3594127
190	0xbe3fa765	-0.187162
191	0xbebccf79	-0.3687704
192	0xbeb7286f	-0.35773036
193	0xbe9c3dbc	-0.3051585
194	0xbea25fed	-0.3171381
195	0x3f0e84a9	0.55671173
196	0x3de6826b	0.11255344
197	0xbc5d5443	-0.013508859
198	0xbdf741c3	-0.1207309
199	0x3d183c27	0.03716674
